day08/mnist_cnn.pth (torch, 439384 bytes, 8 tensors)

weight f4 [16, 1, 3, 3]
0.0010779129 0.33210042 0.6304637 -0.34552264 0.033349004 0.34375063 -0.7366691 -0.44266662
0.27400562 0.07907832 0.4143124 0.0018956453 0.251469 -0.13555014 0.14727587 0.19815776
0.35586458 0.2829114 -0.20113704 -0.11101911 0.33233732 0.29144558 0.23004588 -0.037193373
0.50677896 0.4867932 -0.44423282 0.57483953 0.5417767 0.18041512 0.05375195 -0.15618035
-0.19042361 -0.5656702 -0.45403352 0.038826898 0.17765675 0.32977137 -0.08705841 -0.48025966
-0.3067131 0.4549074 -0.06560469 0.27298614 0.33769876 0.0118485885 0.03932457 0.2025426
0.12495646 -0.068463676 0.24824122 0.11480553 0.35965377 0.34817567 0.3209663 0.28756514
0.24910443 0.25687945 0.4321103 0.13937065 -0.0001871596 -0.17718619 -0.1656219 -0.6270956
-0.3494916 0.1397475 -0.22314334 0.5146413 0.57291806 0.29859048 0.23279938 -0.004576633
-0.20848525 -0.47699246 -0.31265116 0.09772061 0.21588671 0.05775235 0.41530597 0.07110981
0.33574107 0.25632778 0.14838152 -0.2231806 0.16742699 0.52239513 0.42234 0.032529157
0.18245856 0.40918425 0.1481 -0.32387635 -0.20651737 0.50923735 -0.07573353 -0.5045265
0.3439432 0.29195136 -0.00039030143 0.35738972 0.44377702 0.30163905 0.3489225 -0.13541387
0.28009427 0.19611569 -0.2411474 0.20256141 0.35520992 0.08149026 -0.42901528 0.21775132
0.050674405 -0.6168694 -0.141964 -0.62350464 -0.33392435 0.012596524 0.42104983 -0.24629143
-0.3098175 -0.8756997 -0.46865436 -0.35908252 0.14456479 0.43122873 -0.24958158 0.23855968
-0.34358227 -0.15139191 -0.71354103 -0.25271848 0.0016340289 0.29840586 0.362689 -0.31754485
-0.15722485 0.39296168 -0.39159176 0.21247694 0.20264804 -0.26118752 -0.15081225 0.55130345
00000000: c148 8d3a 1109 aa3e 1266 213f 58e8 b0be
00000010: f798 083d 1500 b03e 5996 3cbf 33a5 e2be
00000020: 774a 8c3e d0f3 a13d c120 d43e 4d77 f83a
00000030: 8bc0 803e a8cd 0abe 7ccf 163e dee9 4a3e
00000040: e233 b63e c3d9 903e def6 4dbe fd5d e3bd
00000050: 1e28 aa3e 5b38 953e 2691 6b3e 1458 18bd
00000060: 44bc 013f f53c f93e 7c72 e3be af28 133f
00000070: e1b1 0a3f bebe 383e 012b 5c3d beed 1fbe
00000080: 68fe 42be c3cf 10bf 1577 e8be f408 1f3d
00000090: a7eb 353e cbd7 a83e ae4b b2bd 98e4 f5be
000000a0: 8009 9dbe 9fe9 e83e c05b 86bd d7c4 8b3e
000000b0: dae6 ac3e 9520 423c cd12 213d 5467 4f3e
000000c0: 2ce9 ff3d af36 8cbd f232 7e3e 291f eb3d
000000d0: 8a24 b83e 1544 b23e b255 a43e bd3b 933e
000000e0: 3b15 7f3e b485 833e 903d dd3e 2eb7 0e3e
000000f0: 4640 44b9 4c70 35be ca98 29be 5689 20bf
00000100: 90f0 b2be f819 0f3e b07f 64be 88bf 033f
00000110: c2aa 123f dae0 983e f662 6e3e 95f7 95bb
00000120: 287d 55be 5b38 f4be d013 a0be be21 c83d
00000130: 6811 5d3e ba8d 6c3d fca2 d43e 05a2 913d
00000140: 41e6 ab3e 653d 833e 53f1 173e 7589 64be
00000150: fb71 2b3e b0bb 053f f33c d83e 4b3d 053d
00000160: 6bd6 3a3e 9980 d13e 87a7 173e 1fd3 a5be
00000170: 4a79 53be 615d 023f 2e1a 9bbd a628 01bf
00000180: 5319 b03e a67a 953e 5fa1 ccb9 c9fb b63e
00000190: be36 e33e 6f70 9a3e f8a5 b23e efa9 0abe
000001a0: 8468 8f3e 8dd2 483e 58ef 76be 426c 4f3e
000001b0: 13de b53e 5ee4 a63d e4a7 dbbe 34fa 5e3e
000001c0: f78f 4f3d 27eb 1dbf 035f 11be 009e 1fbf
000001d0: 22f8 aabe a761 4e3c d893 d73e d233 7cbe
000001e0: 66a0 9ebe db2d 60bf 77f3 efbe aad9 b7be
000001f0: cb08 143e 03ca dc3e 5092 7fbe fd48 743e
00000200: 04ea afbe 7b06 1bbe a0aa 36bf 5164 81be
00000210: e92c d63a a7c8 983e 5fb2 b93e 3d95 a2be
00000220: 8dff 20be 4632 c93e b77e c8be 8e93 593e
00000230: f882 4f3e 5fba 85be 876e 1abe 3922 0d3f

bias f4 [16]
-0.015745131 -0.17071003 -0.05319 -0.0075077 -0.1618205 -0.020906087 0.046694614 -0.018134661
0.09012289 -0.115762964 0.13394406 -0.20614944 0.33022028 0.1364344 0.15922333 -0.1330243
00000000: effb 80bc 9cce 2ebe c2dd 59bd 2703 f6bb
00000010: 46b4 25be 3e43 abbc da42 3f3d 248f 94bc
00000020: 5a92 b83d 2215 edbd a228 093e d718 53be
00000030: a212 a93e 76b5 0b3e 710b 233e 8637 08be

weight f4 [32, 16, 3, 3]
0.08016476 -0.09430562 0.3965679 0.2321765 -0.04495997 0.42251316 0.38245767 0.44314197
0.076880775 -0.029098645 -0.09350678 -0.17990516 0.045529515 -0.040231835 -0.16817579 -0.049992934
0.0038442565 0.09933673 0.09019613 0.076302186 -0.04970198 -0.034799006 -0.012145932 -0.050247353
-0.16184622 0.09912581 0.1579697 -0.11765412 -0.022530101 0.08439707 -0.051984973 -0.343347
0.038583208 0.0118149845 0.07478103 0.17561676 -0.015119309 -0.13522138 -0.05044313 -0.004753698
-0.031553004 0.010865884 0.12387593 0.08485528 -0.097471215 -0.008784815 -0.059307694 -0.10100328
0.06343434 0.013368701 -0.14285749 0.059349805 0.08561046 0.017690126 -0.016935935 0.0967021
0.043067083 0.018227573 -0.13323966 -0.1897862 0.041438457 -0.002701818 -0.078717165 0.16561806
-0.07885213 -0.02912465 0.07701883 -0.13823399 0.07922717 -0.013035986 0.03218399 0.050886083
-0.07947092 -0.03337114 -0.14060311 0.020613765 0.10233144 -0.018928062 0.015278288 0.14182612
0.08170961 0.08326282 -0.08632896 -0.020335205 0.08209724 0.02148121 -0.28488654 0.048973534
0.19314305 0.10607061 -0.00507031 0.107082084 -0.11538004 -0.007403448 0.19218355 0.02661153
-0.02723257 0.14565183 0.15961404 -0.07523034 -0.0046432936 0.02162639 -0.001714254 -0.028814789
-0.13695078 -0.0021312414 -0.0040388694 -0.113702334 -0.06796852 0.013831853 -0.07287215 -0.20775002
-0.11810039 0.017821392 -0.12367799 -0.2833831 -0.095421605 -0.14251824 -0.17982413 -0.05710468
-0.24410143 -0.21297629 -0.10732541 -0.35280162 -0.34003818 -0.16281015 -0.13034737 -0.04059265
-0.11757254 -0.112761155 -0.0037096527 0.017076237 -0.33937612 -0.17762466 0.073596224 0.2188501
0.09504596 0.29833835 0.12622584 0.010290572 0.09248689 0.10094524 0.03161363 -0.11483614
0.05323043 0.20311825 -0.07519768 0.07733963 0.2875305 0.043637354 -0.09624041 0.19978425
0.13477017 -0.09173129 0.09442118 -0.0035402998 -0.03718367 -0.05415683 -0.078120366 -0.1700502
0.019798085 0.073630854 0.04121776 -0.022425193 0.14923951 -0.034549735 -0.18832988 0.03260523
-0.082935385 -0.025687603 0.13704182 0.04608433 -0.17205067 -0.22160268 0.08944307 -0.031017402
-0.09417509 0.16914126 -0.044707045 -0.13590308 0.1060542 0.01942865 -0.19203967 -0.07336791
0.111577325 0.020060774 -0.05615434 0.20306943 0.16558342 0.07696185 0.0651558 -0.024280239
-0.11967007 -0.036403894 -0.009836235 -0.15949096 -0.0029735682 -0.006281472 0.024374621 0.06421482
0.0032338644 -0.07461202 0.058520496 -0.0144054815 -0.1776649 -0.020756248 0.046392806 0.15992053
-0.014099462 -0.22564729 0.02413701 0.050093822 -0.1916997 -0.035883885 0.13688524 0.009776863
-0.068717845 0.111512624 -0.014290521 -0.050101813 -0.030177236 0.091401756 0.01764727 -0.04363957
0.092224754 0.060849093 0.02843194 -0.0671078 -0.09728517 0.04979015 0.1255068 -0.20162557
0.027834453 0.058346737 -0.15734038 0.12434661 0.21902342 0.02545613 -0.011292211 0.18773742
-0.019632531 -0.08365667 0.07748971 0.08156829 0.06486391 -0.12675914 -0.06418177 0.06546586
0.033976085 -0.16865036 -0.10169477 0.03097759 -0.11257593 -0.19234489 -0.042538706 -0.028339928
00000000: 6c2d a43d 4e23 c1bd f30a cb3e adbf 6d3e
00000010: f227 38bd a553 d83e 7ed1 c33e 81e3 e23e
00000020: ab73 9d3d 4860 eebc 7c80 bfbd 0f39 38be
00000030: 287d 3a3d 23ca 24bd 4636 2cbe 64c5 4cbd
00000040: ecef 7b3b 0e71 cb3d c0b8 b83d 5244 9c3d
00000050: 4e94 4bbd 6789 0ebd bbff 46bc 2bd0 4dbd
00000060: 04bb 25be 7902 cb3d cfc2 213e a5f4 f0bd
00000070: 0c91 b8bc 5fd8 ac3d 32ee 54bd 2ecb afbe
00000080: 6d09 1e3d a393 413c cc26 993d e1d4 333e
00000090: fab6 77bc 7977 0abe 759d 4ebd e9c4 9bbb
000000a0: b93d 01bd d206 323c aab2 fd3d 9bc8 ad3d
000000b0: fd9e c7bd 2fee 0fbc a0ec 72bd cfda cebd
000000c0: dde9 813d 6508 5b3c 3c49 12be c818 733d
000000d0: 8954 af3d e2ea 903c 3bbd 8abc c00b c63d
000000e0: 1c67 303d fe51 953c fa6f 08be 5057 42be
000000f0: 5fbb 293d fc10 31bb 7736 a1bd c897 293e
00000100: 3a7d a1bd d196 eebc 0cbc 9d3d 368d 0dbe
00000110: db41 a23d e394 55bc 5cd3 033d ed6d 503d
00000120: a6c1 a2bd 2db0 08bd 43fa 0fbe 33de a83c
00000130: 2593 d13d 060f 9bbc c951 7a3c de3a 113e
00000140: 5e57 a73d b385 aa3d 3dcd b0bd 0496 a6bc
00000150: 9922 a83d 5df9 af3c a6dc 91be 7998 483d
00000160: 4bc7 453e 8c3b d93d d824 a6bb da4d db3d
00000170: 5f4c ecbd a098 f2bb c4cb 443e 6c00 da3c
00000180: d716 dfbc c125 153e dd71 233e 5d12 9abd
00000190: c526 98bb d429 b13c d2b0 e0ba fe0c ecbc
000001a0: d33c 0cbe 4cac 0bbb 7e58 84bb c5dc e8bd
000001b0: 1433 8bbd ff9e 623c fe3d 95bd 6cbc 54be
000001c0: 9ede f1bd 2bfe 913c e34a fdbd 9717 91be
000001d0: 676c c3bd 4df0 11be d123 38be 99e6 69bd
000001e0: baf5 79be 7516 5abe 6dcd dbbd 6aa2 b4be
000001f0: 7c19 aebe b4b7 26be c879 05be 7b44 26bd
00000200: dfc9 f0bd 52ef e6bd a51d 73bb 77e3 8b3c
00000210: b5c2 adbe 3de3 35be 9eb9 963d 3e1a 603e
00000220: 75a7 c23d cebf 983e 5941 013e ca99 283c
00000230: c469 bd3d 61bc ce3d 4b7d 013d 362f ebbd
00000240: 2708 5a3d 3bfe 4f3e 3e01 9abd 3d64 9e3d
00000250: 3337 933e 15bd 323d b119 c5bd 3e94 4c3e
00000260: 3101 0a3e 9ddd bbbd e45f c13d 6004 68bb
00000270: e74d 18bd 8dd3 5dbd 92fd 9fbd a421 2ebe
00000280: 982f a23c c6cb 963d f4d3 283d 0ab5 b7bc
00000290: 3ed2 183e 0684 0dbd 8cd9 40be 108d 053d
000002a0: 07da a9bd cf6e d2bc b154 0c3e ecc2 3c3d
000002b0: 0d2e 30be d0eb 62be ee2d b73d 3518 febc
000002c0: dfde c0bd 5e33 2d3e bc1e 37bd 2d2a 0bbe
000002d0: f232 d93d d528 9f3c 0ca6 44be ea41 96bd
000002e0: a782 e43d 7e56 a43c 1802 66bd 6ff1 4f3e
000002f0: b38e 293e 2d9e 9d3d 6770 853d 5ae7 c6bc
00000300: 9515 f5bd 401c 15bd 2928 21bc 9951 23be
00000310: 32e0 42bb ced4 cdbb 49ad c73c 0f83 833d
00000320: 3eef 533b 30ce 98bd 30b3 6f3d f804 6cbc
00000330: caed 35be 0209 aabc 6206 3e3d 35c2 233e
00000340: 6e01 67bc 1510 67be fbba c53c 2e2f 4d3d
00000350: ed4c 44be fbfa 12bd a52b 0c3e 232f 203c
00000360: f1bb 8cbd bb60 e43d ca22 6abc 8f37 4dbd
00000370: 4036 f7bc d830 bb3d 0291 903c 68bf 32bd
00000380: 55e0 bc3d e63c 793d 1aea e83c d06f 89bd
00000390: 723d c7bd c2f0 4b3d db84 003e ef76 4ebe
000003a0: 1405 e43c fdfc 6e3d d61d 21be 6fa9 fe3d
000003b0: ad47 603e 6089 d03c f702 39bc 3d3e 403e
000003c0: 67d4 a0bc 3054 abbd edb2 9e3d 470d a73d
000003d0: 5fd7 843d 26cd 01be bb71 83bd f712 863d
000003e0: 822a 0b3d aeb2 2cbe 5945 d0bd b7c4 fd3c
000003f0: 368e e6bd 0ff6 44be 113d 2ebd 2329 e8bc

bias f4 [32]
-0.020225083 0.029166399 0.005901465 0.0080957925 -0.024811966 -0.012130498 -0.06650815 -0.010615063
-0.16574587 -0.009340516 -0.0065051564 0.030004201 0.03899885 -0.095181055 0.09829748 -0.040295664
0.028497523 -0.0037838055 -0.078768425 0.0019645577 0.019660145 0.107331045 -0.0272532 -0.023209581
-0.0870118 -0.030340895 -0.09341444 -0.12466885 0.01908441 -0.07287898 0.0060188123 0.019715708
00000000: 13af a5bc 5fee ee3c 1461 c13b 37a4 043c
00000010: 7742 cbbc ffbe 46bc 6d35 88bd cdea 2dbc
00000020: 49b9 29be f708 19bc 3529 d5bb 5fcb f53c
00000030: 42bd 1f3d 49ee c2bd 3050 c93d 110d 25bd
00000040: a373 e93c b9f9 77bb 5751 a1bd cfbf 003b
00000050: 500e a13c 61d0 db3d 1a42 dfbc 0522 bebc
00000060: 3e33 b2bd 788d f8bc 1250 bfbd 6252 ffbd
00000070: e956 9c3c 9341 95bd 7539 c53b d682 a13c

weight f4 [128, 800]
-0.08286299 -0.052228685 0.0010223447 0.035970658 0.090357594 -0.10606712 -0.15948789 0.058208294
0.046493758 0.13646837 -0.034368534 -0.003527098 0.002491286 -0.03125548 0.02272028 0.06824735
-0.049850736 -0.0064916513 -0.027888527 -0.03383013 0.027687365 0.13688725 0.067617744 0.0017333216
-0.026445705 -0.045207173 -0.0026759203 0.052485246 0.08968186 0.19963339 -0.0768538 -0.072934374
0.032418277 0.045423184 0.18427563 -0.03849786 0.031718116 0.050969485 0.012113868 0.020718066
0.0071312166 0.045657445 0.035794772 0.04994932 0.002187209 0.016762277 0.08065001 -0.0035788848
-0.0023670157 -0.15896945 -0.009325394 0.038326364 0.008787653 0.06299741 -0.05967868 0.010164178
-0.008199014 0.011577275 0.01772945 -0.009425823 -0.010626486 -0.04327249 -0.03591734 -0.00426318
0.07649355 -0.072834276 0.0043376787 -0.006885631 -0.107136704 -0.04082667 -0.06749594 -0.03694638
0.019979265 -0.01988947 0.059931967 0.027824985 0.0026360713 -0.04719501 -0.12121722 -0.19064602
0.029206257 0.09401822 0.045854438 -0.1802653 -0.150863 0.019864632 0.031058643 0.076615036
0.100988284 0.091879964 -0.037792962 0.038225286 -0.024121333 -0.024236947 -0.0017159124 -9.191362e-05
-0.057920378 -0.03152481 -0.07546307 0.061588284 0.01809281 -0.038810268 -0.12941918 -0.052077048
-0.019772759 -0.035499603 -0.030429387 -0.029344233 -0.085258685 -0.10701941 -0.014876843 0.0014431673
0.024445657 -0.024070699 0.060461577 0.045374267 0.08152362 0.008988091 -0.057917222 0.04833964
0.108260155 0.07979794 -0.08986462 -0.049242806 0.037631776 -0.0105492165 0.11579115 0.14294823
0.11747303 0.28326187 -0.043097757 0.033188116 0.016324403 0.041235648 0.13734852 -0.03401592
-0.050173413 -0.022562707 -0.0122305 0.037028406 -0.007449985 -0.020411637 0.027801596 0.0041613816
0.0711074 0.048612982 0.058653492 -0.024805784 -0.044019237 0.078619145 0.009540759 -0.04899853
0.043956447 0.035148308 0.097539306 -0.07445023 -0.08638232 0.02059687 0.055869795 0.042751946
-0.09910661 -0.040006302 0.01894888 0.09098212 0.12055056 0.05102657 -0.024254754 -0.067390405
0.04917895 -0.050419774 -0.0129352575 0.022601334 0.020115674 0.08988538 -0.015059602 -0.05052686
0.044991672 0.048102267 0.046027392 0.04808483 -0.036529806 -0.048891217 0.059806727 0.08484355
0.038674444 0.0048978934 -0.03987328 0.0068953508 -0.004497426 0.06059271 -0.04502725 -0.077080786
0.011615857 -0.008407569 -0.020400321 -0.017053362 -0.028598495 0.020381212 0.060622815 -0.025266748
0.03789493 0.008628073 -0.035039548 -0.12836714 -0.20037356 0.08553053 0.05250663 -0.05674559
0.09223726 -0.037164647 -0.084508635 0.02549937 0.038630273 0.11196477 0.12674247 -0.07008657
0.06064188 0.021968236 0.050938614 0.056972977 -0.03170664 -0.1286532 -0.016059317 0.09144157
0.09265697 -0.06769886 0.0154914 0.08432441 0.11329791 0.062868945 -0.0841317 0.00795443
0.08252425 -0.00037216995 0.04835939 -0.076450266 -0.019317525 -0.03120081 0.053670075 0.09412006
0.038654335 -0.03919994 -0.0045875455 -0.025226125 -0.044737577 0.027563535 -0.0050548837 -0.040852785
0.048967198 -0.05622964 -0.06124897 0.06590891 0.108638406 0.07331446 0.02363174 -0.09798823
00000000: 12b4 a9bd bfed 55bd 3200 863a f855 133d
00000010: 670d b93d b839 d9bd cb50 23be d26b 6e3d
00000020: 3d70 3e3d 5dbe 0b3e 05c6 0cbd e326 67bb
00000030: d844 233b bf05 00bd e11f ba3c 44c5 8b3d
00000040: 4930 4cbd ebb7 d4bb 7b76 e4bc 7691 0abd
00000050: 9dd0 e23c 2c2c 0c3e 2c7b 8a3d 9f30 e33a
00000060: aaa4 d8bc 282b 39bd 7e5e 2fbb c5fa 563d
00000070: 1fab b73d b26c 4c3e 8665 9dbd 9e5e 95bd
00000080: 07c9 043d a90d 3a3d c0b2 3c3e efaf 1dbd
00000090: dbea 013d 61c5 503d 3f79 463c efb8 a93c
000000a0: fbac e93b 4d03 3b3d 8a9d 123d a897 4c3d
000000b0: 4757 0f3b 0b51 893c d52b a53d b98b 6abb
000000c0: ef1f 1bbb e3c8 22be 8ac9 18bc 1bfc 1c3d
000000d0: 17fa 0f3c c904 813d a271 74bd a787 263c
000000e0: 2855 06bc 9cae 3d3c 5a3d 913c c46e 1abc
000000f0: b61a 2ebc 7f3e 31bd 101e 13bd 25b2 8bbb
00000100: a6a8 9c3d 232a 95bd 1623 8e3b dca0 e1bb
00000110: 7d6a dbbd de39 27bd 503b 8abd 1655 17bd
00000120: 8eab a33c 3eef a2bc 397b 753d 39f1 e33c
00000130: f0c1 2c3b 8e4f 41bd bc40 f8bd b638 43be
00000140: f641 ef3c a08c c03d ddd1 3b3d 7897 38be
00000150: d57b 1abe 27bb a23c b26e fe3c 58e8 9c3d
00000160: f2d2 ce3d 902b bc3d cbcc 1abd 1e92 1c3d
00000170: 1a9a c5bc 908c c6bc 77e8 e0ba c0c1 c0b8
00000180: eb3d 6dbd 2920 01bd 628c 9abd ff43 7c3d
00000190: 5f37 943c 84f7 1ebd 7686 04be be4e 55bd
000001a0: 7bfa a1bc 0868 11bd 0d47 f9bc 5163 f0bc
000001b0: 1b9c aebd fe2c dbbd 01be 73bc a928 bd3a
000001c0: 4242 c83c ea2f c5bc 8fa6 773d 5eda 393d
000001d0: dbf5 a63d c942 133c 9c3a 6dbd c9ff 453d
000001e0: 80b7 dd3d 1a6d a33d f10a b8bd d3b2 49bd
000001f0: c723 1a3d 9fd6 2cbc e923 ed3d 0561 123e
00000200: b395 f03d b307 913e 4687 30bd 43f0 073d
00000210: c1ba 853c b6e6 283d 17a5 0c3e 4754 0bbd
00000220: a382 4dbd 6dd5 b8bc 6f62 48bc 19ab 173d
00000230: 011f f4bb 4e36 a7bc 2cc0 e33c 335c 883b
00000240: c2a0 913d 681e 473d a53e 703d 8035 cbbc
00000250: 844d 34bd 1303 a13d d850 1c3c afb2 48bd
00000260: ad0b 343d acf7 0f3d b0c2 c73d 5d79 98bd
00000270: 37e9 b0bd c4ba a83c bad7 643d aa1c 2f3d
00000280: 68f8 cabd a6dd 23bd ae3a 9b3c d554 ba3d
00000290: 36e3 f63d 3d01 513d e8b1 c6bc fb03 8abd
000002a0: de6f 493d f784 4ebd 67ee 53bc 6f26 b93c
000002b0: a0c9 a43c d315 b83d 8dbc 76bc 41f5 4ebd
000002c0: 3049 383d e206 453d 3887 3c3d 99f4 443d
000002d0: 47a0 15bd 2842 48bd e6f7 743d 75c2 ad3d
000002e0: 1869 1e3d 827e a03b 2a52 23bd 65f2 e13b
000002f0: 255f 93bb 1030 783d 7e6e 38bd 88dc 9dbd
00000300: 6f50 3e3c e6bf 09bc 931e a7bc 7eb3 8bbc
00000310: 6447 eabc 80f6 a63c a14f 783d 36fc cebc
00000320: b737 1b3d c35c 0d3c a185 0fbd ad72 03be
00000330: ba2e 4dbe a12a af3d 3111 573d 106e 68bd
00000340: e3e6 bc3d f539 18bd dd12 adbd 0ee4 d03c
00000350: c73a 1e3d c94d e53d c7c8 013e 8c89 8fbd
00000360: 9f63 783d bbf6 b33c 02a5 503d 7f5c 693d
00000370: d2de 01bd aabd 03be d48e 83bc b845 bb3d
00000380: f0c2 bd3d b3a5 8abd a4cf 7d3c 47b2 ac3d
00000390: bc08 e83d 6fc1 803d 3e4d acbd 4c53 023c
000003a0: 7902 a93d ce1f c3b9 7f14 463d f591 9cbd
000003b0: c93f 9ebc d798 ffbc 27d5 5b3d 05c2 c03d
000003c0: 0254 1e3d 1e90 20bd 1f53 96bb 05a7 cebc
000003d0: c03e 37bd eccc e13c 70a3 a5bb 4055 27bd
000003e0: d491 483d 0d51 66bd 33e0 7abd 40fb 863d
000003f0: d07d de3d e425 963d 5a97 c13c 0eae c8bd

bias f4 [128]
0.006278093 0.028273078 -0.0059498562 0.017533228 -0.014205685 -0.025211122 0.02229875 0.020135438
0.02660968 0.020236783 0.0023031114 0.012198651 -0.041224234 0.069826685 0.012115104 0.0034186386
-0.04075933 -0.030224666 0.037234567 -0.043753177 -0.028176028 -0.02040107 0.018948162 0.021546753
0.04750477 -0.018080823 -0.015046548 -0.030654315 0.036484193 0.0063084904 0.037248373 0.0059116846
-0.040639665 -0.033660416 0.006189459 -0.017576847 -0.033648275 -0.023654168 -0.021099819 0.009663092
-0.004191116 -0.008559925 0.028265772 -0.030649425 -0.00019809841 0.014109479 0.010742865 -0.039802227
0.05710431 0.025313273 -0.016477408 0.06818807 0.02316462 0.046528183 -0.033372376 0.039108597
-0.025571937 0.0054350356 -0.018990159 0.016997006 -0.011825281 -0.016436389 -0.029635869 0.03791569
-0.018037492 0.06798483 -0.011015158 0.009454938 0.016156979 0.01256893 0.035017103 0.00086888694
-0.038927037 0.0010812305 0.03349624 0.009071789 -0.031361386 0.021769665 -0.054340493 -0.046222392
0.01398425 0.05971976 0.014287859 0.009521387 -0.039086197 -0.018557472 0.010868586 -0.033948887
0.042771146 0.02528294 -0.014320196 0.028353004 0.021113088 -0.00633109 0.006076726 0.009452649
0.028309297 0.010875993 -0.0063537 0.028039247 -0.02734944 -0.015513266 0.007909473 0.007075023
0.04687111 -0.012569634 0.007377103 0.06453696 0.013997743 -0.029790536 -0.00053630344 0.055081934
-0.02519719 0.020975435 0.0053404225 -0.031206364 -0.0037135375 -0.027163913 -0.0058745267 -0.0046294923
0.012907087 -0.02010045 -0.04665945 0.018043475 -0.006319648 0.015949728 0.033214588 0.05243623
00000000: 76b8 cd3b f19c e73c 03f7 c2bb d8a1 8f3c
00000010: f6be 68bc 8e87 cebc deab b63c 13f3 a43c
00000020: 8bfc d93c 9cc7 a53c ccef 163b dadc 473c
00000030: beda 28bd 4b01 8f3d 6e7e 463c 3d0b 603b
00000040: 41f3 26bd b899 f7bc 4683 183d 8836 33bd
00000050: 6ad1 e6bc 2520 a7bc 2d39 9b3c d182 b03c
00000060: 5d94 423d 3c1e 94bc cc85 76bc c21e fbbc
00000070: 7370 153d 74b7 ce3b c091 183d ceb6 c13b
00000080: c775 26bd 81df 09bd f2d0 ca3b 52fd 8fbc
00000090: c6d2 09bd 63c6 c1bc 87d9 acbc f251 1e3c
000000a0: a155 89bb ed3e 0cbc 9f8d e73c 8114 fbbc
000000b0: a3b8 4fb9 722b 673c d702 303c a907 23bd
000000c0: 35e6 693d c85d cf3c a1fb 86bc 30a6 8b3d
000000d0: bbc3 bd3c 5694 3e3d 79b1 08bd 5630 203d
000000e0: 3d7c d1bc 6218 b23b 4091 9bbc 4e3d 8b3c
000000f0: d3be 41bc 9ba5 86bc ecc6 f2bc 7c4d 1b3d
00000100: 5dc3 93bc a13b 8b3d ec78 34bc e2e8 1a3c
00000110: a45b 843c eaed 4d3c 186e 0f3d 04c6 633a
00000120: f571 1fbd 13b8 8d3a 5a33 093d d7a1 143c
00000130: cc74 00bd 4c56 b23c 2394 5ebd b153 3dbd
00000140: 321e 653c b59c 743d a017 6a3c 97ff 1b3c
00000150: d918 20bd d705 98bc 2712 323c fd0d 0bbd
00000160: cc30 2f3d 2b1e cf3c 419f 6abc 8f44 e83c
00000170: 5bf5 ac3c 0875 cfbb 461f c73b 49df 1a3c
00000180: e6e8 e73c 3931 323c b332 d0bb 90b2 e53c
00000190: ef0b e0bc 5b2b 7ebc bc96 013c 98d5 e73b
000001a0: ecfb 3f3d def0 4dbc a0bb f13b f42b 843d
000001b0: ca56 653c 480b f4bc b796 0cba 989d 613d
000001c0: 566a cebc add4 ab3c b6fe ae3b 7da4 ffbc
000001d0: d25e 73bb db86 debc 1a7f c0bb ffb2 97bb
000001e0: 3f78 533c b3a9 a4bc fb1d 3fbd e9cf 933c
000001f0: 0d15 cfbb 01a9 823c 050c 083d 5fc7 563d

weight f4 [10, 128]
0.085563004 0.08746217 -0.2271638 -0.0030244181 -0.03477597 -0.04257617 -0.067945704 0.0373949
-0.031714797 0.15759458 -0.029713947 0.11977604 -0.03552782 0.12840562 0.05919464 -0.20555641
-0.20830807 -0.0048930584 0.012991992 0.030443238 -0.008847941 0.03771546 -0.16972591 -0.08559781
-0.041620586 0.08004337 0.016705684 -0.07024704 0.10755512 0.11255248 -0.025719782 -0.13873382
0.056363963 0.02290294 0.020403014 0.048542213 -0.12695731 -0.058005936 0.0013194992 -0.055124093
-0.16734907 0.09291026 0.08500042 0.040248163 -0.017162358 -0.20608653 -0.16374737 -0.023796909
-0.11675934 0.08487049 -0.18981487 0.09860681 0.07283313 -0.13845542 -0.06947343 0.044232447
0.035884332 -0.014944422 0.06389489 -0.024244066 0.13185011 -0.066839784 -0.018270873 0.038575042
-0.0028453344 -0.026696697 0.042090166 0.036658756 0.22169067 -0.10102105 -0.116411455 -0.028268186
-0.14822674 0.016869156 0.06678063 0.006144653 -0.051400397 -0.051197696 -0.07409726 0.088676855
-0.15575641 -0.007527051 -0.03868437 0.006297528 0.029665004 -0.0034265094 -0.109900706 0.051092356
-0.11056822 -0.080725394 0.0016476257 0.16313863 0.010688558 0.03300671 0.009494529 -0.20463675
-0.049602523 -0.06585574 -0.10920149 -0.037521955 -0.025632342 -0.08099953 0.07000147 -0.07185179
-0.15775079 -0.11828681 -0.010224515 0.24158657 0.14627036 -0.21953313 -0.07626032 0.08113005
-0.026259484 -0.068098865 -0.1262347 -0.05555443 0.02783694 -0.0025409942 0.010062374 0.040327847
-0.04465814 -0.014142616 -0.041092277 0.1575321 0.045249686 -0.0334047 -0.05287422 0.09703978
-0.20212986 0.056136742 0.03643491 -0.15683317 0.0067477277 0.07046684 -0.079929926 0.067887716
-0.12834966 -0.016936112 -0.21104465 -0.14506473 0.0637978 0.05710436 0.029901627 -0.095634274
-0.034221828 0.1600411 0.09725313 -0.25281549 0.019196374 0.012147393 0.034244604 0.023401152
0.12465842 0.06114324 -0.09011183 -0.05641192 -0.21466066 -0.0814278 0.12333438 0.019869816
-0.009060284 -0.010623197 -0.004722675 -0.028302435 -0.01688719 0.044169933 -0.08013838 0.024909576
0.123677656 -0.15422544 0.15017706 -0.00037079433 -0.06813692 -0.07043533 0.040829595 0.028756408
0.060775284 -0.03780999 0.108967155 -0.16417447 -0.11188528 0.05517796 -0.08495781 0.028994348
0.029288637 -0.09330686 -0.06383919 0.07049803 -0.026696704 0.026394842 0.01048069 -0.11660614
0.006307888 0.010530707 0.04792689 0.08452431 0.18187161 0.054971658 -0.010472066 0.016605936
-0.09703486 -0.032505527 -0.18399456 -0.036311172 -0.035266783 -0.080344394 -0.014384294 -0.007689587
-0.038430966 0.104910955 0.020115064 0.04745189 -0.039931946 -0.06655746 0.07162638 0.039986815
0.027419416 -0.06378026 -0.05114875 -0.036038317 0.018777667 0.13716452 0.04989965 0.12910806
0.095486715 0.080709055 -0.18941128 0.08284092 0.049686007 0.05464138 -0.027587296 0.028007668
0.29252422 -0.21387993 -0.082126066 0.11071689 0.12799817 0.12063136 -0.092053 -0.044612892
-0.020992989 0.065260865 0.11555136 -0.040501036 -0.037998557 0.07202598 0.046888564 -0.08241073
0.0057135113 0.05609656 0.0054191556 -0.0068522445 -0.0038719303 -0.036387313 -0.009280663 -0.1887559
00000000: a83b af3d 5e1f b33d a19d 68be 5135 46bb
00000010: 3f71 0ebd 5a64 2ebd 1e27 8bbd 652b 193d
00000020: 60e7 01bd 7960 213e aa6a f3bc 244d f53d
00000030: 9f85 11bd c37c 033e 1476 723d 617d 52be
00000040: b64e 55be f355 a0bb 5ddc 543c 1964 f93c
00000050: f4f6 10bc 877b 1a3d a1cc 2dbe e84d afbd
00000060: 597a 2abd c7ed a33d 5cda 883c aedd 8fbd
00000070: dc45 dc3d ea81 e63d 4bb2 d2bc 3d10 0ebe
00000080: e6dd 663d f29e bb3c 3924 a73c 33d4 463d
00000090: 1901 02be a297 6dbd 0cf3 ac3a cdc9 61bd
000000a0: 8e5d 2bbe bc47 be3d b314 ae3d 42db 243d
000000b0: 1398 8cbc 5908 53be 64ad 27be bcf1 c2bc
000000c0: 851f efbd 94d0 ad3d d45e 42be 5ef2 c93d
000000d0: 8929 953d 42c7 0dbe 1648 8ebd 152d 353d
000000e0: 73fb 123d 73d9 74bc 53db 823d 7e9b c6bc
000000f0: b703 073e 4ce3 88bd ccac 95bc dd00 1e3d
00000100: ca78 3abb 08b3 dabc bd66 2c3d 7e27 163d
00000110: e102 633e 20e4 cebd 2169 eebd af92 e7bc
00000120: c0c8 17be 2f31 8a3c 48c4 883d 1659 c93b
00000130: 3989 52bd adb4 51bd 4ec0 97bd 369c b53d
00000140: 9c7e 1fbe 7ba5 f6bb 8173 1ebd 7e5b ce3b
00000150: 0604 f33c 4a8f 60bb 9f13 e1bd 3846 513d
00000160: 9771 e2bd 5b53 a5bd 25f5 d73a d00d 273e
00000170: 101f 2f3c 0b32 073d f18e 1b3c 4c8c 51be
00000180: 042c 4bbd 60df 86bd 08a5 dfbd 9fb0 19bd
00000190: ebfa d1bc 15e3 a5bd ee5c 8f3d 0827 93bd
000001a0: 6c89 21be 5b40 f2bd b984 27bc 7862 773e
000001b0: e6c7 153e 4bcd 60be 5f2e 9cbd 8327 a63d
000001c0: 211e d7bc 6b77 8bbd ab43 01be 0b8d 63bd
000001d0: 4b0a e43c cf86 26bb a8dc 243c d02e 253d
000001e0: 74eb 36bd 6eb6 67bc 6050 28bd 1850 213e
000001f0: bc57 393d 5ed3 08bd a392 58bd cbbc c63d
00000200: 21fb 4ebe a4ef 653d c63c 153d e098 20be
00000210: 0b1c dd3b eb50 903d 4db2 a3bd b708 8b3d
00000220: 186e 03be 9abd 8abc 171c 58be d98b 14be
00000230: 6ca8 823d 43e6 693d 42f4 f43c e7db c3bd
00000240: 302c 0cbd d0e1 233e a62c c73d 0871 81be
00000250: b741 9d3c dc05 473c 1244 0c3d c6b3 bf3c
00000260: ea4c ff3d 5671 7a3d 8d8c b8bd 2f10 67bd
00000270: 01d0 5bbe 9ec3 a6bd bc96 fc3d 06c6 a23c
00000280: 9671 14bc eb0c 2ebc abc0 9abb 82da e7bc
00000290: 0157 8abc 88eb 343d 971f a4bd 2b0f cc3c
000002a0: b64a fd3d 46ed 1dbe 04c8 193e 2c67 c2b9
000002b0: 5f8b 8bbd 6640 90bd ef3c 273d 8f92 eb3c
000002c0: 81ef 783d a6de 1abd 2c2a df3d 5a1d 28be
000002d0: 1c24 e5bd 4902 623d 5cfe adbd 8e85 ed3c
000002e0: b9ee ef3c ab17 bfbd 1fbe 82bd 4561 903d
000002f0: 0cb3 dabc ff39 d83c 33b7 2b3c 33cf eebd
00000300: 66b2 ce3b fd88 2c3c fd4e 443d 151b ad3d
00000310: 8d3c 3a3e f629 613d 0793 2bbc 2c09 883c
00000320: 36ba c6bd 8424 05bd 1269 3cbe 06bb 14bd
00000330: e773 10bd 9a8b a4bd 1aac 6bbc eef8 fbbb
00000340: ca69 1dbd 8edb d63d 59c8 a43c ea5c 423d
00000350: ae8f 23bd 474f 88bd dab0 923d 37c9 233d
00000360: af9e e03c 3a9f 82bd 5a81 51bd ea9c 13bd
00000370: 9fd3 993c db74 0c3e 9363 4c3d e734 043e
00000380: 8a8e c33d ca4a a53d 08f5 41be 80a8 a93d
00000390: 8e83 4b3d a4cf 5f3d c1fe e1bc 5670 e53c
000003a0: bcc5 953e 5703 5bbe b631 a8bd 89bf e23d
000003b0: f411 033e 930d f73d 4986 bcbd 02bc 36bd
000003c0: 7df9 abbc 7da7 853d 31a6 ec3d 6ae4 25bd
000003d0: 60a4 1bbd 5b82 933d 390e 403d f5c6 a8bd
000003e0: 6838 bb3b 82c5 653d 2c93 b13b cb88 e0bb
000003f0: 36c0 7dbb dd0a 15bd ec0d 18bc 3a49 41be

bias f4 [10]
0.05731734 0.07504547 -0.09174116 0.010342761 0.016038261 0.028653812 0.033069916 -0.02117107
0.061115976 -0.009985875
00000000: 96c5 6a3d 70b1 993d cae2 bbbd af74 293c
00000010: ac62 833c 66bb ea3c 5274 073d f46e adbc
00000020: bf54 7a3d cc9b 23bc
